…
model.add(MaxPooling2D(pool_size=(2,2)))
model.add(Dropout(0.25))

model.add(Flatten())
model.add(Dense(512, activation='relu'))
model.add(Dropout(0.5))
model.add(Dense(10, activation='softmax'))
----


+*In[11]:*+
[source, ipython3]
----
model.compile(
    loss='categorical_crossentropy',
    optimizer='adam',
    metrics=['accuracy'])

model.summary()
----


+*Out[11]:*+
----
Model: "sequential"
_________________________________________________________________
 Layer (type)                Output Shape              Param #   
=================================================================
 conv2d (Conv2D)             (None, 32, 32, 32)        896       
                                                                 
 conv2d_1 (Conv2D)           (None, 30, 30, 32)        9248      
                                                                 
 max_pooling2d (MaxPooling2  (None, 15, 15, 32)        0         
 D)                                                              
                                                                 
 dropout (Dropout)           (None, 15, 15, 32)        0         
                                                                 
 conv2d_2 (Conv2D)           (None, 15, 15, 64)        18496     
                                                                 
 conv2d_3 (Conv2D)           (None, 13, 13, 32)        18464     
                                                                 
 max_pooling2d_1 (MaxPoolin  (None, 6, 6, 32)          0         
 g2D)                                                            
                                                                 
 dropout_1 (Dropout)         (None, 6, 6, 32)          0         
                                                                 
 flatten (Flatten)           (None, 1152)              0         
                                                                 
 dense (Dense)               (None, 512)               590336    
                                                                 
 dropout_2 (Dropout)         (None, 512)               0         
                                                                 
 dense_1 (Dense)             (None, 10)                5130      
                                                                 
=================================================================
Total params: 642570 (2.45 MB)
Trainable params: 642570 (2.45 MB)
Non-trainable params: 0 (0.00 Byte)
_________________________________________________________________
----


+*In[12]:*+
[source, ipython3]
----
model.fit(
    x_train,
    y_train,
    batch_size=32,
…
